…
I1216 13:24:18.260475 34701 net.cpp:322] The NetState phase (0) differed from the phase (1) specified by a rule in layer data
I1216 13:24:18.260520 34701 net.cpp:322] The NetState phase (0) differed from the phase (1) specified by a rule in layer accuracy
I1216 13:24:18.260670 34701 net.cpp:58] Initializing net from parameters: 
name: "face_alignment_full_net"
state {
  phase: TRAIN
  level: 0
  stage: ""
}
layer {
  name: "data"
  type: "HDF5Data"
  top: "data"
  top: "label"
  include {
    phase: TRAIN
  }
  hdf5_data_param {
    source: "../train_hdf5.txt"
    batch_size: 64
  }
}
layer {
  name: "conv1"
  type: "Convolution"
  bottom: "data"
  top: "conv1"
  param {
    lr_mult: 1
  }
  param {
    lr_mult: 2
  }
  convolution_param {
    num_output: 20
    pad: 0
    kernel_size: 4
    stride: 1
    weight_filler {
      type: "xavier"
    }
    bias_filler {
      type: "constant"
      value: 0.1
    }
  }
}
layer {
  name: "pool1"
  type: "Pooling"
  bottom: "conv1"
  top: "pool1"
  pooling_param {
    pool: MAX
    kernel_size: 2
    stride: 1
  }
}
layer {
  name: "relu1"
  type: "ReLU"
  bottom: "pool1"
  top: "pool1"
}
layer {
  name: "conv2"
  type: "Convolution"
  bottom: "pool1"
  top: "conv2"
  param {
    lr_mult: 1
  }
  param {
    lr_mult: 2
  }
  convolution_param {
    num_output: 40
    kernel_size: 3
    stride: 1
    weight_filler {
      type: "xavier"
    }
    bias_filler {
      type: "constant"
      value: 0.1
    }
  }
}
layer {
  name: "pool2"
  type: "Pooling"
  bottom: "conv2"
  top: "pool2"
  pooling_param {
    pool: MAX
    kernel_size: 2
    stride: 1
  }
}
layer {
  name: "relu2"
  type: "ReLU"
  bottom: "pool2"
  top: "pool2"
}
layer {
  name: "ip1"
  type: "InnerProduct"
  bottom: "pool2"
  top: "ip1"
  param {
    lr_mult: 1
  }
  param {
    lr_mult: 2
  }
  inner_product_param {
    num_output: 60
    weight_filler {
      type: "gaussian"
      std: 0.01
    }
    bias_filler {
      type: "constant"
    }
  }
}
layer {
  name: "ip2"
  type: "InnerProduct"
  bottom: "ip1"
  top: "ip2"
  param {
    lr_mult: 1
  }
  param {
    lr_mult: 2
  }
  inner_product_param {
    num_output: 2
    weight_filler {
      type: "gaussian"
      std: 0.01
    }
    bias_filler {
      type: "constant"
    }
  }
}
layer {
  name: "loss"
  type: "EuclideanLoss"
  bottom: "ip2"
  bottom: "label"
  top: "loss"
}
I1216 13:24:18.261485 34701 layer_factory.hpp:77] Creating layer data
I1216 13:24:18.261543 34701 net.cpp:100] Creating Layer data
I1216 13:24:18.261574 34701 net.cpp:408] data -> data
I1216 13:24:18.261617 34701 net.cpp:408] data -> label
I1216 13:24:18.261656 34701 hdf5_data_layer.cpp:79] Loading list of HDF5 filenames from: ../train_hdf5.txt
I1216 13:24:18.261724 34701 hdf5_data_layer.cpp:93] Number of HDF5 files: 2
I1216 13:24:18.263093 34701 hdf5.cpp:32] Datatype class: H5T_FLOAT
I1216 13:24:18.335239 34701 net.cpp:150] Setting up data
I1216 13:24:18.335331 34701 net.cpp:157] Top shape: 64 3 15 15 (43200)
I1216 13:24:18.335356 34701 net.cpp:157] Top shape: 64 2 1 1 (128)
I1216 13:24:18.335372 34701 net.cpp:165] Memory required for data: 173312
I1216 13:24:18.335397 34701 layer_factory.hpp:77] Creating layer conv1
I1216 13:24:18.335453 34701 net.cpp:100] Creating Layer conv1
I1216 13:24:18.335479 34701 net.cpp:434] conv1 <- data
I1216 13:24:18.335512 34701 net.cpp:408] conv1 -> conv1
I1216 13:24:18.749141 34701 net.cpp:150] Setting up conv1
I1216 13:24:18.749225 34701 net.cpp:157] Top shape: 64 20 12 12 (184320)
I1216 13:24:18.749244 34701 net.cpp:165] Memory required for data: 910592
I1216 13:24:18.749336 34701 layer_factory.hpp:77] Creating layer pool1
I1216 13:24:18.749377 34701 net.cpp:100] Creating Layer pool1
I1216 13:24:18.749398 34701 net.cpp:434] pool1 <- conv1
I1216 13:24:18.749421 34701 net.cpp:408] pool1 -> pool1
I1216 13:24:18.749547 34701 net.cpp:150] Setting up pool1
I1216 13:24:18.749578 34701 net.cpp:157] Top shape: 64 20 11 11 (154880)
I1216 13:24:18.749594 34701 net.cpp:165] Memory required for data: 1530112
I1216 13:24:18.749611 34701 layer_factory.hpp:77] Creating layer relu1
I1216 13:24:18.749631 34701 net.cpp:100] Creating Layer relu1
I1216 13:24:18.749649 34701 net.cpp:434] relu1 <- pool1
I1216 13:24:18.749668 34701 net.cpp:395] relu1 -> pool1 (in-place)
I1216 13:24:18.749953 34701 net.cpp:150] Setting up relu1
I1216 13:24:18.749985 34701 net.cpp:157] Top shape: 64 20 11 11 (154880)
I1216 13:24:18.750001 34701 net.cpp:165] Memory required for data: 2149632
I1216 13:24:18.750017 34701 layer_factory.hpp:77] Creating layer conv2
I1216 13:24:18.750051 34701 net.cpp:100] Creating Layer conv2
I1216 13:24:18.750069 34701 net.cpp:434] conv2 <- pool1
I1216 13:24:18.750089 34701 net.cpp:408] conv2 -> conv2
I1216 13:24:18.752274 34701 net.cpp:150] Setting up conv2
I1216 13:24:18.752317 34701 net.cpp:157] Top shape: 64 40 9 9 (207360)
I1216 13:24:18.752334 34701 net.cpp:165] Memory required for data: 2979072
I1216 13:24:18.752359 34701 layer_factory.hpp:77] Creating layer pool2
I1216 13:24:18.752382 34701 net.cpp:100] Creating Layer pool2
I1216 13:24:18.752399 34701 net.cpp:434] pool2 <- conv2
I1216 13:24:18.752419 34701 net.cpp:408] pool2 -> pool2
I1216 13:24:18.752511 34701 net.cpp:150] Setting up pool2
I1216 13:24:18.752540 34701 net.cpp:157] Top shape: 64 40 8 8 (163840)
I1216 13:24:18.752557 34701 net.cpp:165] Memory required for data: 3634432
I1216 13:24:18.752573 34701 layer_factory.hpp:77] Creating layer relu2
I1216 13:24:18.752593 34701 net.cpp:100] Creating Layer relu2
I1216 13:24:18.752609 34701 net.cpp:434] relu2 <- pool2
I1216 13:24:18.752626 34701 net.cpp:395] relu2 -> pool2 (in-place)
I1216 13:24:18.752882 34701 net.cpp:150] Setting up relu2
I1216 13:24:18.752913 34701 net.cpp:157] Top shape: 64 40 8 8 (163840)
I1216 13:24:18.752929 34701 net.cpp:165] Memory required for data: 4289792
I1216 13:24:18.752945 34701 layer_factory.hpp:77] Creating layer ip1
I1216 13:24:18.752969 34701 net.cpp:100] Creating Layer ip1
I1216 13:24:18.752987 34701 net.cpp:434] ip1 <- pool2
I1216 13:24:18.753007 34701 net.cpp:408] ip1 -> ip1
I1216 13:24:18.762321 34701 net.cpp:150] Setting up ip1
I1216 13:24:18.762361 34701 net.cpp:157] Top shape: 64 60 (3840)
I1216 13:24:18.762378 34701 net.cpp:165] Memory required for data: 4305152
I1216 13:24:18.762403 34701 layer_factory.hpp:77] Creating layer ip2
I1216 13:24:18.762428 34701 net.cpp:100] Creating Layer ip2
I1216 13:24:18.762444 34701 net.cpp:434] ip2 <- ip1
I1216 13:24:18.762465 34701 net.cpp:408] ip2 -> ip2
I1216 13:24:18.762635 34701 net.cpp:150] Setting up ip2
I1216 13:24:18.762666 34701 net.cpp:157] Top shape: 64 2 (128)
I1216 13:24:18.762686 34701 net.cpp:165] Memory required for data: 4305664
I1216 13:24:18.762706 34701 layer_factory.hpp:77] Creating layer loss
I1216 13:24:18.762727 34701 net.cpp:100] Creating Layer loss
I1216 13:24:18.762742 34701 net.cpp:434] loss <- ip2
I1216 13:24:18.762760 34701 net.cpp:434] loss <- label
I1216 13:24:18.762789 34701 net.cpp:408] loss -> loss
I1216 13:24:18.762871 34701 net.cpp:150] Setting up loss
…
I1216 13:24:18.763185 34701 net.cpp:283] Network initialization done.
I1216 13:24:18.763659 34701 solver.cpp:193] Creating test net (#0) specified by net file: ./train_val.prototxt
I1216 13:24:18.763716 34701 net.cpp:322] The NetState phase (1) differed from the phase (0) specified by a rule in layer data
I1216 13:24:18.763890 34701 net.cpp:58] Initializing net from parameters: 
name: "face_alignment_full_net"
state {
  phase: TEST
}
layer {
  name: "data"
  type: "HDF5Data"
  top: "data"
  top: "label"
  include {
    phase: TEST
  }
  hdf5_data_param {
    source: "../validation_hdf5.txt"
    batch_size: 64
  }
}
layer {
  name: "conv1"
  type: "Convolution"
  bottom: "data"
  top: "conv1"
  param {
    lr_mult: 1
  }
  param {
    lr_mult: 2
  }
  convolution_param {
    num_output: 20
    pad: 0
    kernel_size: 4
    stride: 1
    weight_filler {
      type: "xavier"
    }
    bias_filler {
      type: "constant"
      value: 0.1
    }
  }
}
layer {
  name: "pool1"
  type: "Pooling"
  bottom: "conv1"
  top: "pool1"
  pooling_param {
    pool: MAX
    kernel_size: 2
    stride: 1
  }
}
layer {
  name: "relu1"
  type: "ReLU"
  bottom: "pool1"
  top: "pool1"
}
layer {
  name: "conv2"
  type: "Convolution"
  bottom: "pool1"
  top: "conv2"
  param {
    lr_mult: 1
  }
  param {
    lr_mult: 2
  }
  convolution_param {
    num_output: 40
    kernel_size: 3
    stride: 1
    weight_filler {
      type: "xavier"
    }
    bias_filler {
      type: "constant"
      value: 0.1
    }
  }
}
layer {
  name: "pool2"
  type: "Pooling"
  bottom: "conv2"
  top: "pool2"
  pooling_param {
    pool: MAX
    kernel_size: 2
    stride: 1
  }
}
layer {
  name: "relu2"
  type: "ReLU"
  bottom: "pool2"
  top: "pool2"
}
layer {
  name: "ip1"
  type: "InnerProduct"
  bottom: "pool2"
  top: "ip1"
  param {
    lr_mult: 1
  }
  param {
    lr_mult: 2
  }
  inner_product_param {
    num_output: 60
    weight_filler {
      type: "gaussian"
      std: 0.01
    }
    bias_filler {
      type: "constant"
    }
  }
}
layer {
  name: "ip2"
  type: "InnerProduct"
  bottom: "ip1"
  top: "ip2"
  param {
    lr_mult: 1
  }
  param {
    lr_mult: 2
  }
  inner_product_param {
    num_output: 2
    weight_filler {
      type: "gaussian"
      std: 0.01
    }
    bias_filler {
      type: "constant"
    }
  }
}
layer {
  name: "accuracy"
  type: "EuclideanLoss"
  bottom: "ip2"
  bottom: "label"
  top: "accuracy"
  include {
    phase: TEST
  }
}
layer {
  name: "loss"
  type: "EuclideanLoss"
  bottom: "ip2"
  bottom: "label"
  top: "loss"
}
I1216 13:24:18.764703 34701 layer_factory.hpp:77] Creating layer data
I1216 13:24:18.764731 34701 net.cpp:100] Creating Layer data
I1216 13:24:18.764750 34701 net.cpp:408] data -> data
I1216 13:24:18.764772 34701 net.cpp:408] data -> label
I1216 13:24:18.764794 34701 hdf5_data_layer.cpp:79] Loading list of HDF5 filenames from: ../validation_hdf5.txt
I1216 13:24:18.764842 34701 hdf5_data_layer.cpp:93] Number of HDF5 files: 1
I1216 13:24:18.789259 34701 net.cpp:150] Setting up data
I1216 13:24:18.789355 34701 net.cpp:157] Top shape: 64 3 15 15 (43200)
I1216 13:24:18.789378 34701 net.cpp:157] Top shape: 64 2 1 1 (128)
I1216 13:24:18.789394 34701 net.cpp:165] Memory required for data: 173312
I1216 13:24:18.789414 34701 layer_factory.hpp:77] Creating layer label_data_1_split
I1216 13:24:18.789450 34701 net.cpp:100] Creating Layer label_data_1_split
I1216 13:24:18.789474 34701 net.cpp:434] label_data_1_split <- label
I1216 13:24:18.789495 34701 net.cpp:408] label_data_1_split -> label_data_1_split_0
I1216 13:24:18.789526 34701 net.cpp:408] label_data_1_split -> label_data_1_split_1
I1216 13:24:18.789611 34701 net.cpp:150] Setting up label_data_1_split
I1216 13:24:18.789697 34701 net.cpp:157] Top shape: 64 2 1 1 (128)
I1216 13:24:18.789717 34701 net.cpp:157] Top shape: 64 2 1 1 (128)
I1216 13:24:18.789732 34701 net.cpp:165] Memory required for data: 174336
I1216 13:24:18.789749 34701 layer_factory.hpp:77] Creating layer conv1
I1216 13:24:18.789783 34701 net.cpp:100] Creating Layer conv1
I1216 13:24:18.789803 34701 net.cpp:434] conv1 <- data
I1216 13:24:18.789825 34701 net.cpp:408] conv1 -> conv1
I1216 13:24:18.792274 34701 net.cpp:150] Setting up conv1
I1216 13:24:18.792317 34701 net.cpp:157] Top shape: 64 20 12 12 (184320)
I1216 13:24:18.792336 34701 net.cpp:165] Memory required for data: 911616
I1216 13:24:18.792364 34701 layer_factory.hpp:77] Creating layer pool1
I1216 13:24:18.792392 34701 net.cpp:100] Creating Layer pool1
I1216 13:24:18.792408 34701 net.cpp:434] pool1 <- conv1
I1216 13:24:18.792428 34701 net.cpp:408] pool1 -> pool1
I1216 13:24:18.792503 34701 net.cpp:150] Setting up pool1
I1216 13:24:18.792531 34701 net.cpp:157] Top shape: 64 20 11 11 (154880)
I1216 13:24:18.792546 34701 net.cpp:165] Memory required for data: 1531136
I1216 13:24:18.792562 34701 layer_factory.hpp:77] Creating layer relu1
I1216 13:24:18.792584 34701 net.cpp:100] Creating Layer relu1
I1216 13:24:18.792599 34701 net.cpp:434] relu1 <- pool1
I1216 13:24:18.792618 34701 net.cpp:395] relu1 -> pool1 (in-place)
I1216 13:24:18.793848 34701 net.cpp:150] Setting up relu1
I1216 13:24:18.793884 34701 net.cpp:157] Top shape: 64 20 11 11 (154880)
I1216 13:24:18.793901 34701 net.cpp:165] Memory required for data: 2150656
I1216 13:24:18.793916 34701 layer_factory.hpp:77] Creating layer conv2
I1216 13:24:18.793942 34701 net.cpp:100] Creating Layer conv2
I1216 13:24:18.793962 34701 net.cpp:434] conv2 <- pool1
I1216 13:24:18.793983 34701 net.cpp:408] conv2 -> conv2
I1216 13:24:18.796193 34701 net.cpp:150] Setting up conv2
I1216 13:24:18.796234 34701 net.cpp:157] Top shape: 64 40 9 9 (207360)
I1216 13:24:18.796252 34701 net.cpp:165] Memory required for data: 2980096
I1216 13:24:18.796277 34701 layer_factory.hpp:77] Creating layer pool2
I1216 13:24:18.796300 34701 net.cpp:100] Creating Layer pool2
I1216 13:24:18.796320 34701 net.cpp:434] pool2 <- conv2
I1216 13:24:18.796341 34701 net.cpp:408] pool2 -> pool2
I1216 13:24:18.796422 34701 net.cpp:150] Setting up pool2
I1216 13:24:18.796450 34701 net.cpp:157] Top shape: 64 40 8 8 (163840)
I1216 13:24:18.796466 34701 net.cpp:165] Memory required for data: 3635456
I1216 13:24:18.796483 34701 layer_factory.hpp:77] Creating layer relu2
I1216 13:24:18.796501 34701 net.cpp:100] Creating Layer relu2
I1216 13:24:18.796517 34701 net.cpp:434] relu2 <- pool2
I1216 13:24:18.796535 34701 net.cpp:395] relu2 -> pool2 (in-place)
I1216 13:24:18.796810 34701 net.cpp:150] Setting up relu2
I1216 13:24:18.796843 34701 net.cpp:157] Top shape: 64 40 8 8 (163840)
I1216 13:24:18.796859 34701 net.cpp:165] Memory required for data: 4290816
I1216 13:24:18.796875 34701 layer_factory.hpp:77] Creating layer ip1
I1216 13:24:18.796901 34701 net.cpp:100] Creating Layer ip1
I1216 13:24:18.796921 34701 net.cpp:434] ip1 <- pool2
I1216 13:24:18.796942 34701 net.cpp:408] ip1 -> ip1
I1216 13:24:18.804790 34701 net.cpp:150] Setting up ip1
I1216 13:24:18.804824 34701 net.cpp:157] Top shape: 64 60 (3840)
I1216 13:24:18.804841 34701 net.cpp:165] Memory required for data: 4306176
I1216 13:24:18.804867 34701 layer_factory.hpp:77] Creating layer ip2
I1216 13:24:18.804889 34701 net.cpp:100] Creating Layer ip2
I1216 13:24:18.804908 34701 net.cpp:434] ip2 <- ip1
I1216 13:24:18.804927 34701 net.cpp:408] ip2 -> ip2
I1216 13:24:18.805104 34701 net.cpp:150] Setting up ip2
I1216 13:24:18.805130 34701 net.cpp:157] Top shape: 64 2 (128)
I1216 13:24:18.805143 34701 net.cpp:165] Memory required for data: 4306688
I1216 13:24:18.805163 34701 layer_factory.hpp:77] Creating layer ip2_ip2_0_split
I1216 13:24:18.805184 34701 net.cpp:100] Creating Layer ip2_ip2_0_split
I1216 13:24:18.805198 34701 net.cpp:434] ip2_ip2_0_split <- ip2
I1216 13:24:18.805217 34701 net.cpp:408] ip2_ip2_0_split -> ip2_ip2_0_split_0
I1216 13:24:18.805276 34701 net.cpp:408] ip2_ip2_0_split -> ip2_ip2_0_split_1
I1216 13:24:18.805344 34701 net.cpp:150] Setting up ip2_ip2_0_split
I1216 13:24:18.805368 34701 net.cpp:157] Top shape: 64 2 (128)
I1216 13:24:18.805384 34701 net.cpp:157] Top shape: 64 2 (128)
I1216 13:24:18.805398 34701 net.cpp:165] Memory required for data: 4307712
I1216 13:24:18.805413 34701 layer_factory.hpp:77] Creating layer accuracy
I1216 13:24:18.805434 34701 net.cpp:100] Creating Layer accuracy
I1216 13:24:18.805449 34701 net.cpp:434] accuracy <- ip2_ip2_0_split_0
I1216 13:24:18.805465 34701 net.cpp:434] accuracy <- label_data_1_split_0
I1216 13:24:18.805485 34701 net.cpp:408] accuracy -> accuracy
…
