…
I1216 15:15:52.185742 36667 net.cpp:322] The NetState phase (0) differed from the phase (1) specified by a rule in layer data
I1216 15:15:52.185787 36667 net.cpp:322] The NetState phase (0) differed from the phase (1) specified by a rule in layer accuracy
I1216 15:15:52.185943 36667 net.cpp:58] Initializing net from parameters: 
name: "face_alignment_full_net"
state {
  phase: TRAIN
  level: 0
  stage: ""
}
layer {
  name: "data"
  type: "HDF5Data"
  top: "data"
  top: "label"
  include {
    phase: TRAIN
  }
  hdf5_data_param {
    source: "../train_hdf5.txt"
    batch_size: 64
  }
}
layer {
  name: "conv1"
  type: "Convolution"
  bottom: "data"
  top: "conv1"
  param {
    lr_mult: 1
  }
  param {
    lr_mult: 2
  }
  convolution_param {
    num_output: 20
    pad: 0
    kernel_size: 4
    stride: 1
    weight_filler {
      type: "xavier"
    }
    bias_filler {
      type: "constant"
      value: 0.1
    }
  }
}
layer {
  name: "pool1"
  type: "Pooling"
  bottom: "conv1"
  top: "pool1"
  pooling_param {
    pool: MAX
    kernel_size: 2
    stride: 1
  }
}
layer {
  name: "relu1"
  type: "ReLU"
  bottom: "pool1"
  top: "pool1"
}
layer {
  name: "conv2"
  type: "Convolution"
  bottom: "pool1"
  top: "conv2"
  param {
    lr_mult: 1
  }
  param {
    lr_mult: 2
  }
  convolution_param {
    num_output: 40
    kernel_size: 3
    stride: 1
    weight_filler {
      type: "xavier"
    }
    bias_filler {
      type: "constant"
      value: 0.1
    }
  }
}
layer {
  name: "pool2"
  type: "Pooling"
  bottom: "conv2"
  top: "pool2"
  pooling_param {
    pool: MAX
    kernel_size: 2
    stride: 1
  }
}
layer {
  name: "relu2"
  type: "ReLU"
  bottom: "pool2"
  top: "pool2"
}
layer {
  name: "ip1"
  type: "InnerProduct"
  bottom: "pool2"
  top: "ip1"
  param {
    lr_mult: 1
  }
  param {
    lr_mult: 2
  }
  inner_product_param {
    num_output: 60
    weight_filler {
      type: "gaussian"
      std: 0.01
    }
    bias_filler {
      type: "constant"
    }
  }
}
layer {
  name: "ip2"
  type: "InnerProduct"
  bottom: "ip1"
  top: "ip2"
  param {
    lr_mult: 1
  }
  param {
    lr_mult: 2
  }
  inner_product_param {
    num_output: 2
    weight_filler {
      type: "gaussian"
      std: 0.01
    }
    bias_filler {
      type: "constant"
    }
  }
}
layer {
  name: "loss"
  type: "EuclideanLoss"
  bottom: "ip2"
  bottom: "label"
  top: "loss"
}
I1216 15:15:52.186645 36667 layer_factory.hpp:77] Creating layer data
I1216 15:15:52.186691 36667 net.cpp:100] Creating Layer data
I1216 15:15:52.186717 36667 net.cpp:408] data -> data
I1216 15:15:52.186765 36667 net.cpp:408] data -> label
I1216 15:15:52.186805 36667 hdf5_data_layer.cpp:79] Loading list of HDF5 filenames from: ../train_hdf5.txt
I1216 15:15:52.186872 36667 hdf5_data_layer.cpp:93] Number of HDF5 files: 2
I1216 15:15:52.188407 36667 hdf5.cpp:32] Datatype class: H5T_FLOAT
I1216 15:15:52.258949 36667 net.cpp:150] Setting up data
I1216 15:15:52.259073 36667 net.cpp:157] Top shape: 64 3 15 15 (43200)
I1216 15:15:52.259099 36667 net.cpp:157] Top shape: 64 2 1 1 (128)
I1216 15:15:52.259114 36667 net.cpp:165] Memory required for data: 173312
I1216 15:15:52.259141 36667 layer_factory.hpp:77] Creating layer conv1
I1216 15:15:52.259215 36667 net.cpp:100] Creating Layer conv1
I1216 15:15:52.259243 36667 net.cpp:434] conv1 <- data
I1216 15:15:52.259282 36667 net.cpp:408] conv1 -> conv1
I1216 15:15:52.694607 36667 net.cpp:150] Setting up conv1
I1216 15:15:52.694694 36667 net.cpp:157] Top shape: 64 20 12 12 (184320)
I1216 15:15:52.694713 36667 net.cpp:165] Memory required for data: 910592
I1216 15:15:52.694824 36667 layer_factory.hpp:77] Creating layer pool1
I1216 15:15:52.694887 36667 net.cpp:100] Creating Layer pool1
I1216 15:15:52.694911 36667 net.cpp:434] pool1 <- conv1
I1216 15:15:52.694937 36667 net.cpp:408] pool1 -> pool1
I1216 15:15:52.695050 36667 net.cpp:150] Setting up pool1
I1216 15:15:52.695080 36667 net.cpp:157] Top shape: 64 20 11 11 (154880)
I1216 15:15:52.695096 36667 net.cpp:165] Memory required for data: 1530112
I1216 15:15:52.695112 36667 layer_factory.hpp:77] Creating layer relu1
I1216 15:15:52.695135 36667 net.cpp:100] Creating Layer relu1
I1216 15:15:52.695152 36667 net.cpp:434] relu1 <- pool1
I1216 15:15:52.695171 36667 net.cpp:395] relu1 -> pool1 (in-place)
I1216 15:15:52.695458 36667 net.cpp:150] Setting up relu1
I1216 15:15:52.695489 36667 net.cpp:157] Top shape: 64 20 11 11 (154880)
I1216 15:15:52.695509 36667 net.cpp:165] Memory required for data: 2149632
I1216 15:15:52.695525 36667 layer_factory.hpp:77] Creating layer conv2
I1216 15:15:52.695577 36667 net.cpp:100] Creating Layer conv2
I1216 15:15:52.695597 36667 net.cpp:434] conv2 <- pool1
I1216 15:15:52.695619 36667 net.cpp:408] conv2 -> conv2
I1216 15:15:52.698104 36667 net.cpp:150] Setting up conv2
I1216 15:15:52.698148 36667 net.cpp:157] Top shape: 64 40 9 9 (207360)
I1216 15:15:52.698164 36667 net.cpp:165] Memory required for data: 2979072
I1216 15:15:52.698206 36667 layer_factory.hpp:77] Creating layer pool2
I1216 15:15:52.698231 36667 net.cpp:100] Creating Layer pool2
I1216 15:15:52.698248 36667 net.cpp:434] pool2 <- conv2
I1216 15:15:52.698271 36667 net.cpp:408] pool2 -> pool2
I1216 15:15:52.698374 36667 net.cpp:150] Setting up pool2
I1216 15:15:52.698405 36667 net.cpp:157] Top shape: 64 40 8 8 (163840)
I1216 15:15:52.698424 36667 net.cpp:165] Memory required for data: 3634432
I1216 15:15:52.698439 36667 layer_factory.hpp:77] Creating layer relu2
I1216 15:15:52.698462 36667 net.cpp:100] Creating Layer relu2
I1216 15:15:52.698487 36667 net.cpp:434] relu2 <- pool2
I1216 15:15:52.698505 36667 net.cpp:395] relu2 -> pool2 (in-place)
I1216 15:15:52.698806 36667 net.cpp:150] Setting up relu2
I1216 15:15:52.698837 36667 net.cpp:157] Top shape: 64 40 8 8 (163840)
I1216 15:15:52.698853 36667 net.cpp:165] Memory required for data: 4289792
I1216 15:15:52.698868 36667 layer_factory.hpp:77] Creating layer ip1
I1216 15:15:52.698912 36667 net.cpp:100] Creating Layer ip1
I1216 15:15:52.698930 36667 net.cpp:434] ip1 <- pool2
I1216 15:15:52.698953 36667 net.cpp:408] ip1 -> ip1
I1216 15:15:52.708545 36667 net.cpp:150] Setting up ip1
I1216 15:15:52.708600 36667 net.cpp:157] Top shape: 64 60 (3840)
I1216 15:15:52.708616 36667 net.cpp:165] Memory required for data: 4305152
I1216 15:15:52.708643 36667 layer_factory.hpp:77] Creating layer ip2
I1216 15:15:52.708675 36667 net.cpp:100] Creating Layer ip2
I1216 15:15:52.708703 36667 net.cpp:434] ip2 <- ip1
I1216 15:15:52.708732 36667 net.cpp:408] ip2 -> ip2
I1216 15:15:52.708974 36667 net.cpp:150] Setting up ip2
I1216 15:15:52.709005 36667 net.cpp:157] Top shape: 64 2 (128)
I1216 15:15:52.709020 36667 net.cpp:165] Memory required for data: 4305664
I1216 15:15:52.709041 36667 layer_factory.hpp:77] Creating layer loss
I1216 15:15:52.709077 36667 net.cpp:100] Creating Layer loss
I1216 15:15:52.709105 36667 net.cpp:434] loss <- ip2
I1216 15:15:52.709123 36667 net.cpp:434] loss <- label
I1216 15:15:52.709151 36667 net.cpp:408] loss -> loss
I1216 15:15:52.709235 36667 net.cpp:150] Setting up loss
…
I1216 15:15:52.709575 36667 net.cpp:283] Network initialization done.
I1216 15:15:52.710142 36667 solver.cpp:193] Creating test net (#0) specified by net file: ./train_val.prototxt
I1216 15:15:52.710201 36667 net.cpp:322] The NetState phase (1) differed from the phase (0) specified by a rule in layer data
I1216 15:15:52.710381 36667 net.cpp:58] Initializing net from parameters: 
name: "face_alignment_full_net"
state {
  phase: TEST
}
layer {
  name: "data"
  type: "HDF5Data"
  top: "data"
  top: "label"
  include {
    phase: TEST
  }
  hdf5_data_param {
    source: "../validation_hdf5.txt"
    batch_size: 64
  }
}
layer {
  name: "conv1"
  type: "Convolution"
  bottom: "data"
  top: "conv1"
  param {
    lr_mult: 1
  }
  param {
    lr_mult: 2
  }
  convolution_param {
    num_output: 20
    pad: 0
    kernel_size: 4
    stride: 1
    weight_filler {
      type: "xavier"
    }
    bias_filler {
      type: "constant"
      value: 0.1
    }
  }
}
layer {
  name: "pool1"
  type: "Pooling"
  bottom: "conv1"
  top: "pool1"
  pooling_param {
    pool: MAX
    kernel_size: 2
    stride: 1
  }
}
layer {
  name: "relu1"
  type: "ReLU"
  bottom: "pool1"
  top: "pool1"
}
layer {
  name: "conv2"
  type: "Convolution"
  bottom: "pool1"
  top: "conv2"
  param {
    lr_mult: 1
  }
  param {
    lr_mult: 2
  }
  convolution_param {
    num_output: 40
    kernel_size: 3
    stride: 1
    weight_filler {
      type: "xavier"
    }
    bias_filler {
      type: "constant"
      value: 0.1
    }
  }
}
layer {
  name: "pool2"
  type: "Pooling"
  bottom: "conv2"
  top: "pool2"
  pooling_param {
    pool: MAX
    kernel_size: 2
    stride: 1
  }
}
layer {
  name: "relu2"
  type: "ReLU"
  bottom: "pool2"
  top: "pool2"
}
layer {
  name: "ip1"
  type: "InnerProduct"
  bottom: "pool2"
  top: "ip1"
  param {
    lr_mult: 1
  }
  param {
    lr_mult: 2
  }
  inner_product_param {
    num_output: 60
    weight_filler {
      type: "gaussian"
      std: 0.01
    }
    bias_filler {
      type: "constant"
    }
  }
}
layer {
  name: "ip2"
  type: "InnerProduct"
  bottom: "ip1"
  top: "ip2"
  param {
    lr_mult: 1
  }
  param {
    lr_mult: 2
  }
  inner_product_param {
    num_output: 2
    weight_filler {
      type: "gaussian"
      std: 0.01
    }
    bias_filler {
      type: "constant"
    }
  }
}
layer {
  name: "accuracy"
  type: "EuclideanLoss"
  bottom: "ip2"
  bottom: "label"
  top: "accuracy"
  include {
    phase: TEST
  }
}
layer {
  name: "loss"
  type: "EuclideanLoss"
  bottom: "ip2"
  bottom: "label"
  top: "loss"
}
I1216 15:15:52.711177 36667 layer_factory.hpp:77] Creating layer data
I1216 15:15:52.711206 36667 net.cpp:100] Creating Layer data
I1216 15:15:52.711225 36667 net.cpp:408] data -> data
I1216 15:15:52.711246 36667 net.cpp:408] data -> label
I1216 15:15:52.711268 36667 hdf5_data_layer.cpp:79] Loading list of HDF5 filenames from: ../validation_hdf5.txt
I1216 15:15:52.711314 36667 hdf5_data_layer.cpp:93] Number of HDF5 files: 1
I1216 15:15:52.738023 36667 net.cpp:150] Setting up data
I1216 15:15:52.738109 36667 net.cpp:157] Top shape: 64 3 15 15 (43200)
I1216 15:15:52.738131 36667 net.cpp:157] Top shape: 64 2 1 1 (128)
I1216 15:15:52.738145 36667 net.cpp:165] Memory required for data: 173312
I1216 15:15:52.738165 36667 layer_factory.hpp:77] Creating layer label_data_1_split
I1216 15:15:52.738210 36667 net.cpp:100] Creating Layer label_data_1_split
I1216 15:15:52.738239 36667 net.cpp:434] label_data_1_split <- label
I1216 15:15:52.738261 36667 net.cpp:408] label_data_1_split -> label_data_1_split_0
I1216 15:15:52.738291 36667 net.cpp:408] label_data_1_split -> label_data_1_split_1
I1216 15:15:52.738368 36667 net.cpp:150] Setting up label_data_1_split
I1216 15:15:52.738447 36667 net.cpp:157] Top shape: 64 2 1 1 (128)
I1216 15:15:52.738466 36667 net.cpp:157] Top shape: 64 2 1 1 (128)
I1216 15:15:52.738481 36667 net.cpp:165] Memory required for data: 174336
I1216 15:15:52.738497 36667 layer_factory.hpp:77] Creating layer conv1
I1216 15:15:52.738530 36667 net.cpp:100] Creating Layer conv1
I1216 15:15:52.738554 36667 net.cpp:434] conv1 <- data
I1216 15:15:52.738575 36667 net.cpp:408] conv1 -> conv1
I1216 15:15:52.741037 36667 net.cpp:150] Setting up conv1
I1216 15:15:52.741080 36667 net.cpp:157] Top shape: 64 20 12 12 (184320)
I1216 15:15:52.741098 36667 net.cpp:165] Memory required for data: 911616
I1216 15:15:52.741127 36667 layer_factory.hpp:77] Creating layer pool1
I1216 15:15:52.741159 36667 net.cpp:100] Creating Layer pool1
I1216 15:15:52.741175 36667 net.cpp:434] pool1 <- conv1
I1216 15:15:52.741194 36667 net.cpp:408] pool1 -> pool1
I1216 15:15:52.741281 36667 net.cpp:150] Setting up pool1
I1216 15:15:52.741308 36667 net.cpp:157] Top shape: 64 20 11 11 (154880)
I1216 15:15:52.741324 36667 net.cpp:165] Memory required for data: 1531136
I1216 15:15:52.741340 36667 layer_factory.hpp:77] Creating layer relu1
I1216 15:15:52.741361 36667 net.cpp:100] Creating Layer relu1
I1216 15:15:52.741377 36667 net.cpp:434] relu1 <- pool1
I1216 15:15:52.741396 36667 net.cpp:395] relu1 -> pool1 (in-place)
I1216 15:15:52.742635 36667 net.cpp:150] Setting up relu1
I1216 15:15:52.742674 36667 net.cpp:157] Top shape: 64 20 11 11 (154880)
I1216 15:15:52.742691 36667 net.cpp:165] Memory required for data: 2150656
I1216 15:15:52.742707 36667 layer_factory.hpp:77] Creating layer conv2
I1216 15:15:52.742733 36667 net.cpp:100] Creating Layer conv2
I1216 15:15:52.742749 36667 net.cpp:434] conv2 <- pool1
I1216 15:15:52.742770 36667 net.cpp:408] conv2 -> conv2
I1216 15:15:52.744983 36667 net.cpp:150] Setting up conv2
I1216 15:15:52.745024 36667 net.cpp:157] Top shape: 64 40 9 9 (207360)
I1216 15:15:52.745041 36667 net.cpp:165] Memory required for data: 2980096
I1216 15:15:52.745067 36667 layer_factory.hpp:77] Creating layer pool2
I1216 15:15:52.745090 36667 net.cpp:100] Creating Layer pool2
I1216 15:15:52.745106 36667 net.cpp:434] pool2 <- conv2
I1216 15:15:52.745126 36667 net.cpp:408] pool2 -> pool2
I1216 15:15:52.745204 36667 net.cpp:150] Setting up pool2
I1216 15:15:52.745234 36667 net.cpp:157] Top shape: 64 40 8 8 (163840)
I1216 15:15:52.745249 36667 net.cpp:165] Memory required for data: 3635456
I1216 15:15:52.745265 36667 layer_factory.hpp:77] Creating layer relu2
I1216 15:15:52.745283 36667 net.cpp:100] Creating Layer relu2
I1216 15:15:52.745299 36667 net.cpp:434] relu2 <- pool2
I1216 15:15:52.745318 36667 net.cpp:395] relu2 -> pool2 (in-place)
I1216 15:15:52.745594 36667 net.cpp:150] Setting up relu2
I1216 15:15:52.745625 36667 net.cpp:157] Top shape: 64 40 8 8 (163840)
I1216 15:15:52.745640 36667 net.cpp:165] Memory required for data: 4290816
I1216 15:15:52.745656 36667 layer_factory.hpp:77] Creating layer ip1
I1216 15:15:52.745682 36667 net.cpp:100] Creating Layer ip1
I1216 15:15:52.745698 36667 net.cpp:434] ip1 <- pool2
I1216 15:15:52.745718 36667 net.cpp:408] ip1 -> ip1
I1216 15:15:52.753562 36667 net.cpp:150] Setting up ip1
I1216 15:15:52.753595 36667 net.cpp:157] Top shape: 64 60 (3840)
I1216 15:15:52.753613 36667 net.cpp:165] Memory required for data: 4306176
I1216 15:15:52.753639 36667 layer_factory.hpp:77] Creating layer ip2
I1216 15:15:52.753662 36667 net.cpp:100] Creating Layer ip2
I1216 15:15:52.753679 36667 net.cpp:434] ip2 <- ip1
I1216 15:15:52.753697 36667 net.cpp:408] ip2 -> ip2
I1216 15:15:52.753870 36667 net.cpp:150] Setting up ip2
I1216 15:15:52.753895 36667 net.cpp:157] Top shape: 64 2 (128)
I1216 15:15:52.753911 36667 net.cpp:165] Memory required for data: 4306688
I1216 15:15:52.753931 36667 layer_factory.hpp:77] Creating layer ip2_ip2_0_split
I1216 15:15:52.753948 36667 net.cpp:100] Creating Layer ip2_ip2_0_split
I1216 15:15:52.753962 36667 net.cpp:434] ip2_ip2_0_split <- ip2
I1216 15:15:52.753980 36667 net.cpp:408] ip2_ip2_0_split -> ip2_ip2_0_split_0
I1216 15:15:52.754021 36667 net.cpp:408] ip2_ip2_0_split -> ip2_ip2_0_split_1
I1216 15:15:52.754089 36667 net.cpp:150] Setting up ip2_ip2_0_split
I1216 15:15:52.754113 36667 net.cpp:157] Top shape: 64 2 (128)
I1216 15:15:52.754130 36667 net.cpp:157] Top shape: 64 2 (128)
I1216 15:15:52.754144 36667 net.cpp:165] Memory required for data: 4307712
I1216 15:15:52.754158 36667 layer_factory.hpp:77] Creating layer accuracy
I1216 15:15:52.754179 36667 net.cpp:100] Creating Layer accuracy
I1216 15:15:52.754194 36667 net.cpp:434] accuracy <- ip2_ip2_0_split_0
I1216 15:15:52.754209 36667 net.cpp:434] accuracy <- label_data_1_split_0
I1216 15:15:52.754227 36667 net.cpp:408] accuracy -> accuracy
…
