…
I1214 10:14:14.512473 10673 net.cpp:322] The NetState phase (0) differed from the phase (1) specified by a rule in layer data
I1214 10:14:14.512521 10673 net.cpp:322] The NetState phase (0) differed from the phase (1) specified by a rule in layer accuracy
I1214 10:14:14.512670 10673 net.cpp:58] Initializing net from parameters: 
name: "face_alignment_full_net"
state {
  phase: TRAIN
  level: 0
  stage: ""
}
layer {
  name: "data"
  type: "HDF5Data"
  top: "data"
  top: "label"
  include {
    phase: TRAIN
  }
  hdf5_data_param {
    source: "../train_hdf5.txt"
    batch_size: 64
  }
}
layer {
  name: "conv1"
  type: "Convolution"
  bottom: "data"
  top: "conv1"
  param {
    lr_mult: 1
  }
  param {
    lr_mult: 2
  }
  convolution_param {
    num_output: 20
    pad: 0
    kernel_size: 4
    stride: 1
    weight_filler {
      type: "xavier"
    }
    bias_filler {
      type: "constant"
      value: 0.1
    }
  }
}
layer {
  name: "pool1"
  type: "Pooling"
  bottom: "conv1"
  top: "pool1"
  pooling_param {
    pool: MAX
    kernel_size: 2
    stride: 1
  }
}
layer {
  name: "relu1"
  type: "ReLU"
  bottom: "pool1"
  top: "pool1"
}
layer {
  name: "conv2"
  type: "Convolution"
  bottom: "pool1"
  top: "conv2"
  param {
    lr_mult: 1
  }
  param {
    lr_mult: 2
  }
  convolution_param {
    num_output: 40
    kernel_size: 3
    stride: 1
    weight_filler {
      type: "xavier"
    }
    bias_filler {
      type: "constant"
      value: 0.1
    }
  }
}
layer {
  name: "pool2"
  type: "Pooling"
  bottom: "conv2"
  top: "pool2"
  pooling_param {
    pool: MAX
    kernel_size: 2
    stride: 1
  }
}
layer {
  name: "relu2"
  type: "ReLU"
  bottom: "pool2"
  top: "pool2"
}
layer {
  name: "ip1"
  type: "InnerProduct"
  bottom: "pool2"
  top: "ip1"
  param {
    lr_mult: 1
  }
  param {
    lr_mult: 2
  }
  inner_product_param {
    num_output: 60
    weight_filler {
      type: "gaussian"
      std: 0.01
    }
    bias_filler {
      type: "constant"
    }
  }
}
layer {
  name: "ip2"
  type: "InnerProduct"
  bottom: "ip1"
  top: "ip2"
  param {
    lr_mult: 1
  }
  param {
    lr_mult: 2
  }
  inner_product_param {
    num_output: 2
    weight_filler {
      type: "gaussian"
      std: 0.01
    }
    bias_filler {
      type: "constant"
    }
  }
}
layer {
  name: "loss"
  type: "EuclideanLoss"
  bottom: "ip2"
  bottom: "label"
  top: "loss"
}
I1214 10:14:14.513514 10673 layer_factory.hpp:77] Creating layer data
I1214 10:14:14.513572 10673 net.cpp:100] Creating Layer data
I1214 10:14:14.513603 10673 net.cpp:408] data -> data
I1214 10:14:14.513646 10673 net.cpp:408] data -> label
I1214 10:14:14.513685 10673 hdf5_data_layer.cpp:79] Loading list of HDF5 filenames from: ../train_hdf5.txt
I1214 10:14:14.513753 10673 hdf5_data_layer.cpp:93] Number of HDF5 files: 2
I1214 10:14:14.515105 10673 hdf5.cpp:32] Datatype class: H5T_FLOAT
I1214 10:14:14.584688 10673 net.cpp:150] Setting up data
I1214 10:14:14.584797 10673 net.cpp:157] Top shape: 64 3 15 15 (43200)
I1214 10:14:14.584822 10673 net.cpp:157] Top shape: 64 2 1 1 (128)
I1214 10:14:14.584839 10673 net.cpp:165] Memory required for data: 173312
I1214 10:14:14.584862 10673 layer_factory.hpp:77] Creating layer conv1
I1214 10:14:14.584926 10673 net.cpp:100] Creating Layer conv1
I1214 10:14:14.584950 10673 net.cpp:434] conv1 <- data
I1214 10:14:14.584983 10673 net.cpp:408] conv1 -> conv1
I1214 10:14:14.990556 10673 net.cpp:150] Setting up conv1
I1214 10:14:14.990633 10673 net.cpp:157] Top shape: 64 20 12 12 (184320)
I1214 10:14:14.990653 10673 net.cpp:165] Memory required for data: 910592
I1214 10:14:14.990741 10673 layer_factory.hpp:77] Creating layer pool1
I1214 10:14:14.990780 10673 net.cpp:100] Creating Layer pool1
I1214 10:14:14.990808 10673 net.cpp:434] pool1 <- conv1
I1214 10:14:14.990829 10673 net.cpp:408] pool1 -> pool1
I1214 10:14:14.990942 10673 net.cpp:150] Setting up pool1
I1214 10:14:14.990972 10673 net.cpp:157] Top shape: 64 20 11 11 (154880)
I1214 10:14:14.990990 10673 net.cpp:165] Memory required for data: 1530112
I1214 10:14:14.991006 10673 layer_factory.hpp:77] Creating layer relu1
I1214 10:14:14.991026 10673 net.cpp:100] Creating Layer relu1
I1214 10:14:14.991052 10673 net.cpp:434] relu1 <- pool1
I1214 10:14:14.991071 10673 net.cpp:395] relu1 -> pool1 (in-place)
I1214 10:14:14.991349 10673 net.cpp:150] Setting up relu1
I1214 10:14:14.991381 10673 net.cpp:157] Top shape: 64 20 11 11 (154880)
I1214 10:14:14.991397 10673 net.cpp:165] Memory required for data: 2149632
I1214 10:14:14.991413 10673 layer_factory.hpp:77] Creating layer conv2
I1214 10:14:14.991444 10673 net.cpp:100] Creating Layer conv2
I1214 10:14:14.991462 10673 net.cpp:434] conv2 <- pool1
I1214 10:14:14.991482 10673 net.cpp:408] conv2 -> conv2
I1214 10:14:14.993661 10673 net.cpp:150] Setting up conv2
I1214 10:14:14.993703 10673 net.cpp:157] Top shape: 64 40 9 9 (207360)
I1214 10:14:14.993721 10673 net.cpp:165] Memory required for data: 2979072
I1214 10:14:14.993746 10673 layer_factory.hpp:77] Creating layer pool2
I1214 10:14:14.993769 10673 net.cpp:100] Creating Layer pool2
I1214 10:14:14.993798 10673 net.cpp:434] pool2 <- conv2
I1214 10:14:14.993818 10673 net.cpp:408] pool2 -> pool2
I1214 10:14:14.993899 10673 net.cpp:150] Setting up pool2
I1214 10:14:14.993928 10673 net.cpp:157] Top shape: 64 40 8 8 (163840)
I1214 10:14:14.993944 10673 net.cpp:165] Memory required for data: 3634432
I1214 10:14:14.993962 10673 layer_factory.hpp:77] Creating layer relu2
I1214 10:14:14.993980 10673 net.cpp:100] Creating Layer relu2
I1214 10:14:14.993996 10673 net.cpp:434] relu2 <- pool2
I1214 10:14:14.994015 10673 net.cpp:395] relu2 -> pool2 (in-place)
I1214 10:14:14.994273 10673 net.cpp:150] Setting up relu2
I1214 10:14:14.994305 10673 net.cpp:157] Top shape: 64 40 8 8 (163840)
I1214 10:14:14.994321 10673 net.cpp:165] Memory required for data: 4289792
I1214 10:14:14.994338 10673 layer_factory.hpp:77] Creating layer ip1
I1214 10:14:14.994360 10673 net.cpp:100] Creating Layer ip1
I1214 10:14:14.994379 10673 net.cpp:434] ip1 <- pool2
I1214 10:14:14.994400 10673 net.cpp:408] ip1 -> ip1
I1214 10:14:15.004225 10673 net.cpp:150] Setting up ip1
I1214 10:14:15.004269 10673 net.cpp:157] Top shape: 64 60 (3840)
I1214 10:14:15.004287 10673 net.cpp:165] Memory required for data: 4305152
I1214 10:14:15.004315 10673 layer_factory.hpp:77] Creating layer ip2
I1214 10:14:15.004341 10673 net.cpp:100] Creating Layer ip2
I1214 10:14:15.004359 10673 net.cpp:434] ip2 <- ip1
I1214 10:14:15.004380 10673 net.cpp:408] ip2 -> ip2
I1214 10:14:15.004565 10673 net.cpp:150] Setting up ip2
I1214 10:14:15.004595 10673 net.cpp:157] Top shape: 64 2 (128)
I1214 10:14:15.004611 10673 net.cpp:165] Memory required for data: 4305664
I1214 10:14:15.004631 10673 layer_factory.hpp:77] Creating layer loss
I1214 10:14:15.004652 10673 net.cpp:100] Creating Layer loss
I1214 10:14:15.004670 10673 net.cpp:434] loss <- ip2
I1214 10:14:15.004698 10673 net.cpp:434] loss <- label
I1214 10:14:15.004719 10673 net.cpp:408] loss -> loss
I1214 10:14:15.004801 10673 net.cpp:150] Setting up loss
…
I1214 10:14:15.005123 10673 net.cpp:283] Network initialization done.
I1214 10:14:15.005599 10673 solver.cpp:193] Creating test net (#0) specified by net file: ./train_val.prototxt
I1214 10:14:15.005658 10673 net.cpp:322] The NetState phase (1) differed from the phase (0) specified by a rule in layer data
I1214 10:14:15.005830 10673 net.cpp:58] Initializing net from parameters: 
name: "face_alignment_full_net"
state {
  phase: TEST
}
layer {
  name: "data"
  type: "HDF5Data"
  top: "data"
  top: "label"
  include {
    phase: TEST
  }
  hdf5_data_param {
    source: "../validation_hdf5.txt"
    batch_size: 64
  }
}
layer {
  name: "conv1"
  type: "Convolution"
  bottom: "data"
  top: "conv1"
  param {
    lr_mult: 1
  }
  param {
    lr_mult: 2
  }
  convolution_param {
    num_output: 20
    pad: 0
    kernel_size: 4
    stride: 1
    weight_filler {
      type: "xavier"
    }
    bias_filler {
      type: "constant"
      value: 0.1
    }
  }
}
layer {
  name: "pool1"
  type: "Pooling"
  bottom: "conv1"
  top: "pool1"
  pooling_param {
    pool: MAX
    kernel_size: 2
    stride: 1
  }
}
layer {
  name: "relu1"
  type: "ReLU"
  bottom: "pool1"
  top: "pool1"
}
layer {
  name: "conv2"
  type: "Convolution"
  bottom: "pool1"
  top: "conv2"
  param {
    lr_mult: 1
  }
  param {
    lr_mult: 2
  }
  convolution_param {
    num_output: 40
    kernel_size: 3
    stride: 1
    weight_filler {
      type: "xavier"
    }
    bias_filler {
      type: "constant"
      value: 0.1
    }
  }
}
layer {
  name: "pool2"
  type: "Pooling"
  bottom: "conv2"
  top: "pool2"
  pooling_param {
    pool: MAX
    kernel_size: 2
    stride: 1
  }
}
layer {
  name: "relu2"
  type: "ReLU"
  bottom: "pool2"
  top: "pool2"
}
layer {
  name: "ip1"
  type: "InnerProduct"
  bottom: "pool2"
  top: "ip1"
  param {
    lr_mult: 1
  }
  param {
    lr_mult: 2
  }
  inner_product_param {
    num_output: 60
    weight_filler {
      type: "gaussian"
      std: 0.01
    }
    bias_filler {
      type: "constant"
    }
  }
}
layer {
  name: "ip2"
  type: "InnerProduct"
  bottom: "ip1"
  top: "ip2"
  param {
    lr_mult: 1
  }
  param {
    lr_mult: 2
  }
  inner_product_param {
    num_output: 2
    weight_filler {
      type: "gaussian"
      std: 0.01
    }
    bias_filler {
      type: "constant"
    }
  }
}
layer {
  name: "accuracy"
  type: "EuclideanLoss"
  bottom: "ip2"
  bottom: "label"
  top: "accuracy"
  include {
    phase: TEST
  }
}
layer {
  name: "loss"
  type: "EuclideanLoss"
  bottom: "ip2"
  bottom: "label"
  top: "loss"
}
I1214 10:14:15.006644 10673 layer_factory.hpp:77] Creating layer data
I1214 10:14:15.006674 10673 net.cpp:100] Creating Layer data
I1214 10:14:15.006691 10673 net.cpp:408] data -> data
I1214 10:14:15.006714 10673 net.cpp:408] data -> label
I1214 10:14:15.006737 10673 hdf5_data_layer.cpp:79] Loading list of HDF5 filenames from: ../validation_hdf5.txt
I1214 10:14:15.006790 10673 hdf5_data_layer.cpp:93] Number of HDF5 files: 2
I1214 10:14:15.039935 10673 net.cpp:150] Setting up data
I1214 10:14:15.040014 10673 net.cpp:157] Top shape: 64 3 15 15 (43200)
I1214 10:14:15.040037 10673 net.cpp:157] Top shape: 64 2 1 1 (128)
I1214 10:14:15.040052 10673 net.cpp:165] Memory required for data: 173312
I1214 10:14:15.040073 10673 layer_factory.hpp:77] Creating layer label_data_1_split
I1214 10:14:15.040134 10673 net.cpp:100] Creating Layer label_data_1_split
I1214 10:14:15.040156 10673 net.cpp:434] label_data_1_split <- label
I1214 10:14:15.040179 10673 net.cpp:408] label_data_1_split -> label_data_1_split_0
I1214 10:14:15.040210 10673 net.cpp:408] label_data_1_split -> label_data_1_split_1
I1214 10:14:15.040280 10673 net.cpp:150] Setting up label_data_1_split
I1214 10:14:15.040349 10673 net.cpp:157] Top shape: 64 2 1 1 (128)
I1214 10:14:15.040371 10673 net.cpp:157] Top shape: 64 2 1 1 (128)
I1214 10:14:15.040393 10673 net.cpp:165] Memory required for data: 174336
I1214 10:14:15.040410 10673 layer_factory.hpp:77] Creating layer conv1
I1214 10:14:15.040444 10673 net.cpp:100] Creating Layer conv1
I1214 10:14:15.040465 10673 net.cpp:434] conv1 <- data
I1214 10:14:15.040488 10673 net.cpp:408] conv1 -> conv1
I1214 10:14:15.042922 10673 net.cpp:150] Setting up conv1
I1214 10:14:15.042964 10673 net.cpp:157] Top shape: 64 20 12 12 (184320)
I1214 10:14:15.042982 10673 net.cpp:165] Memory required for data: 911616
I1214 10:14:15.043015 10673 layer_factory.hpp:77] Creating layer pool1
I1214 10:14:15.043040 10673 net.cpp:100] Creating Layer pool1
I1214 10:14:15.043074 10673 net.cpp:434] pool1 <- conv1
I1214 10:14:15.043095 10673 net.cpp:408] pool1 -> pool1
I1214 10:14:15.043179 10673 net.cpp:150] Setting up pool1
I1214 10:14:15.043208 10673 net.cpp:157] Top shape: 64 20 11 11 (154880)
I1214 10:14:15.043225 10673 net.cpp:165] Memory required for data: 1531136
I1214 10:14:15.043241 10673 layer_factory.hpp:77] Creating layer relu1
I1214 10:14:15.043263 10673 net.cpp:100] Creating Layer relu1
I1214 10:14:15.043282 10673 net.cpp:434] relu1 <- pool1
I1214 10:14:15.043301 10673 net.cpp:395] relu1 -> pool1 (in-place)
I1214 10:14:15.044528 10673 net.cpp:150] Setting up relu1
I1214 10:14:15.044566 10673 net.cpp:157] Top shape: 64 20 11 11 (154880)
I1214 10:14:15.044584 10673 net.cpp:165] Memory required for data: 2150656
I1214 10:14:15.044602 10673 layer_factory.hpp:77] Creating layer conv2
I1214 10:14:15.044630 10673 net.cpp:100] Creating Layer conv2
I1214 10:14:15.044651 10673 net.cpp:434] conv2 <- pool1
I1214 10:14:15.044673 10673 net.cpp:408] conv2 -> conv2
I1214 10:14:15.046903 10673 net.cpp:150] Setting up conv2
I1214 10:14:15.046946 10673 net.cpp:157] Top shape: 64 40 9 9 (207360)
I1214 10:14:15.046963 10673 net.cpp:165] Memory required for data: 2980096
I1214 10:14:15.046993 10673 layer_factory.hpp:77] Creating layer pool2
I1214 10:14:15.047019 10673 net.cpp:100] Creating Layer pool2
I1214 10:14:15.047036 10673 net.cpp:434] pool2 <- conv2
I1214 10:14:15.047056 10673 net.cpp:408] pool2 -> pool2
I1214 10:14:15.047138 10673 net.cpp:150] Setting up pool2
I1214 10:14:15.047168 10673 net.cpp:157] Top shape: 64 40 8 8 (163840)
I1214 10:14:15.047184 10673 net.cpp:165] Memory required for data: 3635456
I1214 10:14:15.047201 10673 layer_factory.hpp:77] Creating layer relu2
I1214 10:14:15.047220 10673 net.cpp:100] Creating Layer relu2
I1214 10:14:15.047238 10673 net.cpp:434] relu2 <- pool2
I1214 10:14:15.047258 10673 net.cpp:395] relu2 -> pool2 (in-place)
I1214 10:14:15.047529 10673 net.cpp:150] Setting up relu2
I1214 10:14:15.047561 10673 net.cpp:157] Top shape: 64 40 8 8 (163840)
I1214 10:14:15.047579 10673 net.cpp:165] Memory required for data: 4290816
I1214 10:14:15.047595 10673 layer_factory.hpp:77] Creating layer ip1
I1214 10:14:15.047623 10673 net.cpp:100] Creating Layer ip1
I1214 10:14:15.047642 10673 net.cpp:434] ip1 <- pool2
I1214 10:14:15.047664 10673 net.cpp:408] ip1 -> ip1
I1214 10:14:15.055562 10673 net.cpp:150] Setting up ip1
I1214 10:14:15.055609 10673 net.cpp:157] Top shape: 64 60 (3840)
I1214 10:14:15.055625 10673 net.cpp:165] Memory required for data: 4306176
I1214 10:14:15.055652 10673 layer_factory.hpp:77] Creating layer ip2
I1214 10:14:15.055676 10673 net.cpp:100] Creating Layer ip2
I1214 10:14:15.055693 10673 net.cpp:434] ip2 <- ip1
I1214 10:14:15.055721 10673 net.cpp:408] ip2 -> ip2
I1214 10:14:15.055909 10673 net.cpp:150] Setting up ip2
I1214 10:14:15.055939 10673 net.cpp:157] Top shape: 64 2 (128)
I1214 10:14:15.055958 10673 net.cpp:165] Memory required for data: 4306688
I1214 10:14:15.055980 10673 layer_factory.hpp:77] Creating layer ip2_ip2_0_split
I1214 10:14:15.056002 10673 net.cpp:100] Creating Layer ip2_ip2_0_split
I1214 10:14:15.056022 10673 net.cpp:434] ip2_ip2_0_split <- ip2
I1214 10:14:15.056044 10673 net.cpp:408] ip2_ip2_0_split -> ip2_ip2_0_split_0
I1214 10:14:15.056130 10673 net.cpp:408] ip2_ip2_0_split -> ip2_ip2_0_split_1
I1214 10:14:15.056201 10673 net.cpp:150] Setting up ip2_ip2_0_split
I1214 10:14:15.056229 10673 net.cpp:157] Top shape: 64 2 (128)
I1214 10:14:15.056248 10673 net.cpp:157] Top shape: 64 2 (128)
I1214 10:14:15.056267 10673 net.cpp:165] Memory required for data: 4307712
I1214 10:14:15.056285 10673 layer_factory.hpp:77] Creating layer accuracy
I1214 10:14:15.056308 10673 net.cpp:100] Creating Layer accuracy
I1214 10:14:15.056329 10673 net.cpp:434] accuracy <- ip2_ip2_0_split_0
I1214 10:14:15.056355 10673 net.cpp:434] accuracy <- label_data_1_split_0
I1214 10:14:15.056380 10673 net.cpp:408] accuracy -> accuracy
…
