…
I1216 13:23:41.013155 34688 net.cpp:322] The NetState phase (0) differed from the phase (1) specified by a rule in layer data
I1216 13:23:41.013223 34688 net.cpp:322] The NetState phase (0) differed from the phase (1) specified by a rule in layer accuracy
I1216 13:23:41.013416 34688 net.cpp:58] Initializing net from parameters: 
name: "face_alignment_full_net"
state {
  phase: TRAIN
  level: 0
  stage: ""
}
layer {
  name: "data"
  type: "HDF5Data"
  top: "data"
  top: "label"
  include {
    phase: TRAIN
  }
  hdf5_data_param {
    source: "../train_hdf5.txt"
    batch_size: 64
  }
}
layer {
  name: "conv1"
  type: "Convolution"
  bottom: "data"
  top: "conv1"
  param {
    lr_mult: 1
  }
  param {
    lr_mult: 2
  }
  convolution_param {
    num_output: 20
    pad: 0
    kernel_size: 4
    stride: 1
    weight_filler {
      type: "xavier"
    }
    bias_filler {
      type: "constant"
      value: 0.1
    }
  }
}
layer {
  name: "pool1"
  type: "Pooling"
  bottom: "conv1"
  top: "pool1"
  pooling_param {
    pool: MAX
    kernel_size: 2
    stride: 1
  }
}
layer {
  name: "relu1"
  type: "ReLU"
  bottom: "pool1"
  top: "pool1"
}
layer {
  name: "conv2"
  type: "Convolution"
  bottom: "pool1"
  top: "conv2"
  param {
    lr_mult: 1
  }
  param {
    lr_mult: 2
  }
  convolution_param {
    num_output: 40
    kernel_size: 3
    stride: 1
    weight_filler {
      type: "xavier"
    }
    bias_filler {
      type: "constant"
      value: 0.1
    }
  }
}
layer {
  name: "pool2"
  type: "Pooling"
  bottom: "conv2"
  top: "pool2"
  pooling_param {
    pool: MAX
    kernel_size: 2
    stride: 1
  }
}
layer {
  name: "relu2"
  type: "ReLU"
  bottom: "pool2"
  top: "pool2"
}
layer {
  name: "ip1"
  type: "InnerProduct"
  bottom: "pool2"
  top: "ip1"
  param {
    lr_mult: 1
  }
  param {
    lr_mult: 2
  }
  inner_product_param {
    num_output: 60
    weight_filler {
      type: "gaussian"
      std: 0.01
    }
    bias_filler {
      type: "constant"
    }
  }
}
layer {
  name: "ip2"
  type: "InnerProduct"
  bottom: "ip1"
  top: "ip2"
  param {
    lr_mult: 1
  }
  param {
    lr_mult: 2
  }
  inner_product_param {
    num_output: 2
    weight_filler {
      type: "gaussian"
      std: 0.01
    }
    bias_filler {
      type: "constant"
    }
  }
}
layer {
  name: "loss"
  type: "EuclideanLoss"
  bottom: "ip2"
  bottom: "label"
  top: "loss"
}
I1216 13:23:41.013615 34688 layer_factory.hpp:77] Creating layer data
I1216 13:23:41.013654 34688 net.cpp:100] Creating Layer data
I1216 13:23:41.013671 34688 net.cpp:408] data -> data
I1216 13:23:41.013711 34688 net.cpp:408] data -> label
I1216 13:23:41.013736 34688 hdf5_data_layer.cpp:79] Loading list of HDF5 filenames from: ../train_hdf5.txt
I1216 13:23:41.013799 34688 hdf5_data_layer.cpp:93] Number of HDF5 files: 2
I1216 13:23:41.015362 34688 hdf5.cpp:32] Datatype class: H5T_FLOAT
I1216 13:23:41.086835 34688 net.cpp:150] Setting up data
I1216 13:23:41.086928 34688 net.cpp:157] Top shape: 64 3 15 15 (43200)
I1216 13:23:41.086953 34688 net.cpp:157] Top shape: 64 2 1 1 (128)
I1216 13:23:41.086969 34688 net.cpp:165] Memory required for data: 173312
I1216 13:23:41.086995 34688 layer_factory.hpp:77] Creating layer conv1
I1216 13:23:41.087060 34688 net.cpp:100] Creating Layer conv1
I1216 13:23:41.087086 34688 net.cpp:434] conv1 <- data
I1216 13:23:41.087122 34688 net.cpp:408] conv1 -> conv1
I1216 13:23:41.487043 34688 net.cpp:150] Setting up conv1
I1216 13:23:41.487133 34688 net.cpp:157] Top shape: 64 20 12 12 (184320)
I1216 13:23:41.487154 34688 net.cpp:165] Memory required for data: 910592
I1216 13:23:41.487241 34688 layer_factory.hpp:77] Creating layer pool1
I1216 13:23:41.487282 34688 net.cpp:100] Creating Layer pool1
I1216 13:23:41.487318 34688 net.cpp:434] pool1 <- conv1
I1216 13:23:41.487341 34688 net.cpp:408] pool1 -> pool1
I1216 13:23:41.487457 34688 net.cpp:150] Setting up pool1
I1216 13:23:41.487488 34688 net.cpp:157] Top shape: 64 20 11 11 (154880)
I1216 13:23:41.487504 34688 net.cpp:165] Memory required for data: 1530112
I1216 13:23:41.487519 34688 layer_factory.hpp:77] Creating layer relu1
I1216 13:23:41.487538 34688 net.cpp:100] Creating Layer relu1
I1216 13:23:41.487553 34688 net.cpp:434] relu1 <- pool1
I1216 13:23:41.487572 34688 net.cpp:395] relu1 -> pool1 (in-place)
I1216 13:23:41.487854 34688 net.cpp:150] Setting up relu1
I1216 13:23:41.487886 34688 net.cpp:157] Top shape: 64 20 11 11 (154880)
I1216 13:23:41.487903 34688 net.cpp:165] Memory required for data: 2149632
I1216 13:23:41.487920 34688 layer_factory.hpp:77] Creating layer conv2
I1216 13:23:41.487953 34688 net.cpp:100] Creating Layer conv2
I1216 13:23:41.487970 34688 net.cpp:434] conv2 <- pool1
I1216 13:23:41.487990 34688 net.cpp:408] conv2 -> conv2
I1216 13:23:41.490185 34688 net.cpp:150] Setting up conv2
I1216 13:23:41.490226 34688 net.cpp:157] Top shape: 64 40 9 9 (207360)
I1216 13:23:41.490243 34688 net.cpp:165] Memory required for data: 2979072
I1216 13:23:41.490268 34688 layer_factory.hpp:77] Creating layer pool2
I1216 13:23:41.490289 34688 net.cpp:100] Creating Layer pool2
I1216 13:23:41.490306 34688 net.cpp:434] pool2 <- conv2
I1216 13:23:41.490325 34688 net.cpp:408] pool2 -> pool2
I1216 13:23:41.490406 34688 net.cpp:150] Setting up pool2
I1216 13:23:41.490433 34688 net.cpp:157] Top shape: 64 40 8 8 (163840)
I1216 13:23:41.490450 34688 net.cpp:165] Memory required for data: 3634432
I1216 13:23:41.490468 34688 layer_factory.hpp:77] Creating layer relu2
I1216 13:23:41.490486 34688 net.cpp:100] Creating Layer relu2
I1216 13:23:41.490501 34688 net.cpp:434] relu2 <- pool2
I1216 13:23:41.490520 34688 net.cpp:395] relu2 -> pool2 (in-place)
I1216 13:23:41.490813 34688 net.cpp:150] Setting up relu2
I1216 13:23:41.490844 34688 net.cpp:157] Top shape: 64 40 8 8 (163840)
I1216 13:23:41.490860 34688 net.cpp:165] Memory required for data: 4289792
I1216 13:23:41.490875 34688 layer_factory.hpp:77] Creating layer ip1
I1216 13:23:41.490902 34688 net.cpp:100] Creating Layer ip1
I1216 13:23:41.490919 34688 net.cpp:434] ip1 <- pool2
I1216 13:23:41.490942 34688 net.cpp:408] ip1 -> ip1
I1216 13:23:41.500285 34688 net.cpp:150] Setting up ip1
I1216 13:23:41.500322 34688 net.cpp:157] Top shape: 64 60 (3840)
I1216 13:23:41.500339 34688 net.cpp:165] Memory required for data: 4305152
I1216 13:23:41.500367 34688 layer_factory.hpp:77] Creating layer ip2
I1216 13:23:41.500396 34688 net.cpp:100] Creating Layer ip2
I1216 13:23:41.500413 34688 net.cpp:434] ip2 <- ip1
I1216 13:23:41.500433 34688 net.cpp:408] ip2 -> ip2
I1216 13:23:41.500613 34688 net.cpp:150] Setting up ip2
I1216 13:23:41.500639 34688 net.cpp:157] Top shape: 64 2 (128)
I1216 13:23:41.500654 34688 net.cpp:165] Memory required for data: 4305664
I1216 13:23:41.500674 34688 layer_factory.hpp:77] Creating layer loss
I1216 13:23:41.500694 34688 net.cpp:100] Creating Layer loss
I1216 13:23:41.500710 34688 net.cpp:434] loss <- ip2
I1216 13:23:41.500728 34688 net.cpp:434] loss <- label
I1216 13:23:41.500752 34688 net.cpp:408] loss -> loss
I1216 13:23:41.500838 34688 net.cpp:150] Setting up loss
…
I1216 13:23:41.501171 34688 net.cpp:283] Network initialization done.
I1216 13:23:41.501682 34688 solver.cpp:193] Creating test net (#0) specified by net file: ./train_val.prototxt
I1216 13:23:41.501742 34688 net.cpp:322] The NetState phase (1) differed from the phase (0) specified by a rule in layer data
I1216 13:23:41.501920 34688 net.cpp:58] Initializing net from parameters: 
name: "face_alignment_full_net"
state {
  phase: TEST
}
layer {
  name: "data"
  type: "HDF5Data"
  top: "data"
  top: "label"
  include {
    phase: TEST
  }
  hdf5_data_param {
    source: "../validation_hdf5.txt"
    batch_size: 64
  }
}
layer {
  name: "conv1"
  type: "Convolution"
  bottom: "data"
  top: "conv1"
  param {
    lr_mult: 1
  }
  param {
    lr_mult: 2
  }
  convolution_param {
    num_output: 20
    pad: 0
    kernel_size: 4
    stride: 1
    weight_filler {
      type: "xavier"
    }
    bias_filler {
      type: "constant"
      value: 0.1
    }
  }
}
layer {
  name: "pool1"
  type: "Pooling"
  bottom: "conv1"
  top: "pool1"
  pooling_param {
    pool: MAX
    kernel_size: 2
    stride: 1
  }
}
layer {
  name: "relu1"
  type: "ReLU"
  bottom: "pool1"
  top: "pool1"
}
layer {
  name: "conv2"
  type: "Convolution"
  bottom: "pool1"
  top: "conv2"
  param {
    lr_mult: 1
  }
  param {
    lr_mult: 2
  }
  convolution_param {
    num_output: 40
    kernel_size: 3
    stride: 1
    weight_filler {
      type: "xavier"
    }
    bias_filler {
      type: "constant"
      value: 0.1
    }
  }
}
layer {
  name: "pool2"
  type: "Pooling"
  bottom: "conv2"
  top: "pool2"
  pooling_param {
    pool: MAX
    kernel_size: 2
    stride: 1
  }
}
layer {
  name: "relu2"
  type: "ReLU"
  bottom: "pool2"
  top: "pool2"
}
layer {
  name: "ip1"
  type: "InnerProduct"
  bottom: "pool2"
  top: "ip1"
  param {
    lr_mult: 1
  }
  param {
    lr_mult: 2
  }
  inner_product_param {
    num_output: 60
    weight_filler {
      type: "gaussian"
      std: 0.01
    }
    bias_filler {
      type: "constant"
    }
  }
}
layer {
  name: "ip2"
  type: "InnerProduct"
  bottom: "ip1"
  top: "ip2"
  param {
    lr_mult: 1
  }
  param {
    lr_mult: 2
  }
  inner_product_param {
    num_output: 2
    weight_filler {
      type: "gaussian"
      std: 0.01
    }
    bias_filler {
      type: "constant"
    }
  }
}
layer {
  name: "accuracy"
  type: "EuclideanLoss"
  bottom: "ip2"
  bottom: "label"
  top: "accuracy"
  include {
    phase: TEST
  }
}
layer {
  name: "loss"
  type: "EuclideanLoss"
  bottom: "ip2"
  bottom: "label"
  top: "loss"
}
I1216 13:23:41.502810 34688 layer_factory.hpp:77] Creating layer data
I1216 13:23:41.502838 34688 net.cpp:100] Creating Layer data
I1216 13:23:41.502856 34688 net.cpp:408] data -> data
I1216 13:23:41.502878 34688 net.cpp:408] data -> label
I1216 13:23:41.502900 34688 hdf5_data_layer.cpp:79] Loading list of HDF5 filenames from: ../validation_hdf5.txt
I1216 13:23:41.502943 34688 hdf5_data_layer.cpp:93] Number of HDF5 files: 1
I1216 13:23:41.526629 34688 net.cpp:150] Setting up data
I1216 13:23:41.526728 34688 net.cpp:157] Top shape: 64 3 15 15 (43200)
I1216 13:23:41.526752 34688 net.cpp:157] Top shape: 64 2 1 1 (128)
I1216 13:23:41.526768 34688 net.cpp:165] Memory required for data: 173312
I1216 13:23:41.526790 34688 layer_factory.hpp:77] Creating layer label_data_1_split
I1216 13:23:41.526829 34688 net.cpp:100] Creating Layer label_data_1_split
I1216 13:23:41.526850 34688 net.cpp:434] label_data_1_split <- label
I1216 13:23:41.526875 34688 net.cpp:408] label_data_1_split -> label_data_1_split_0
I1216 13:23:41.526906 34688 net.cpp:408] label_data_1_split -> label_data_1_split_1
I1216 13:23:41.526975 34688 net.cpp:150] Setting up label_data_1_split
I1216 13:23:41.527045 34688 net.cpp:157] Top shape: 64 2 1 1 (128)
I1216 13:23:41.527065 34688 net.cpp:157] Top shape: 64 2 1 1 (128)
I1216 13:23:41.527081 34688 net.cpp:165] Memory required for data: 174336
I1216 13:23:41.527098 34688 layer_factory.hpp:77] Creating layer conv1
I1216 13:23:41.527132 34688 net.cpp:100] Creating Layer conv1
I1216 13:23:41.527149 34688 net.cpp:434] conv1 <- data
I1216 13:23:41.527169 34688 net.cpp:408] conv1 -> conv1
I1216 13:23:41.529593 34688 net.cpp:150] Setting up conv1
I1216 13:23:41.529635 34688 net.cpp:157] Top shape: 64 20 12 12 (184320)
I1216 13:23:41.529654 34688 net.cpp:165] Memory required for data: 911616
I1216 13:23:41.529691 34688 layer_factory.hpp:77] Creating layer pool1
I1216 13:23:41.529717 34688 net.cpp:100] Creating Layer pool1
I1216 13:23:41.529736 34688 net.cpp:434] pool1 <- conv1
I1216 13:23:41.529754 34688 net.cpp:408] pool1 -> pool1
I1216 13:23:41.529832 34688 net.cpp:150] Setting up pool1
I1216 13:23:41.529860 34688 net.cpp:157] Top shape: 64 20 11 11 (154880)
I1216 13:23:41.529877 34688 net.cpp:165] Memory required for data: 1531136
I1216 13:23:41.529894 34688 layer_factory.hpp:77] Creating layer relu1
I1216 13:23:41.529919 34688 net.cpp:100] Creating Layer relu1
I1216 13:23:41.529937 34688 net.cpp:434] relu1 <- pool1
I1216 13:23:41.529955 34688 net.cpp:395] relu1 -> pool1 (in-place)
I1216 13:23:41.531179 34688 net.cpp:150] Setting up relu1
I1216 13:23:41.531219 34688 net.cpp:157] Top shape: 64 20 11 11 (154880)
I1216 13:23:41.531235 34688 net.cpp:165] Memory required for data: 2150656
I1216 13:23:41.531251 34688 layer_factory.hpp:77] Creating layer conv2
I1216 13:23:41.531278 34688 net.cpp:100] Creating Layer conv2
I1216 13:23:41.531296 34688 net.cpp:434] conv2 <- pool1
I1216 13:23:41.531317 34688 net.cpp:408] conv2 -> conv2
I1216 13:23:41.533601 34688 net.cpp:150] Setting up conv2
I1216 13:23:41.533648 34688 net.cpp:157] Top shape: 64 40 9 9 (207360)
I1216 13:23:41.533665 34688 net.cpp:165] Memory required for data: 2980096
I1216 13:23:41.533691 34688 layer_factory.hpp:77] Creating layer pool2
I1216 13:23:41.533717 34688 net.cpp:100] Creating Layer pool2
I1216 13:23:41.533735 34688 net.cpp:434] pool2 <- conv2
I1216 13:23:41.533754 34688 net.cpp:408] pool2 -> pool2
I1216 13:23:41.533838 34688 net.cpp:150] Setting up pool2
I1216 13:23:41.533877 34688 net.cpp:157] Top shape: 64 40 8 8 (163840)
I1216 13:23:41.533893 34688 net.cpp:165] Memory required for data: 3635456
I1216 13:23:41.533910 34688 layer_factory.hpp:77] Creating layer relu2
I1216 13:23:41.533931 34688 net.cpp:100] Creating Layer relu2
I1216 13:23:41.533946 34688 net.cpp:434] relu2 <- pool2
I1216 13:23:41.533967 34688 net.cpp:395] relu2 -> pool2 (in-place)
I1216 13:23:41.534238 34688 net.cpp:150] Setting up relu2
I1216 13:23:41.534276 34688 net.cpp:157] Top shape: 64 40 8 8 (163840)
I1216 13:23:41.534291 34688 net.cpp:165] Memory required for data: 4290816
I1216 13:23:41.534307 34688 layer_factory.hpp:77] Creating layer ip1
I1216 13:23:41.534334 34688 net.cpp:100] Creating Layer ip1
I1216 13:23:41.534358 34688 net.cpp:434] ip1 <- pool2
I1216 13:23:41.534379 34688 net.cpp:408] ip1 -> ip1
I1216 13:23:41.542248 34688 net.cpp:150] Setting up ip1
I1216 13:23:41.542281 34688 net.cpp:157] Top shape: 64 60 (3840)
I1216 13:23:41.542299 34688 net.cpp:165] Memory required for data: 4306176
I1216 13:23:41.542322 34688 layer_factory.hpp:77] Creating layer ip2
I1216 13:23:41.542347 34688 net.cpp:100] Creating Layer ip2
I1216 13:23:41.542371 34688 net.cpp:434] ip2 <- ip1
I1216 13:23:41.542392 34688 net.cpp:408] ip2 -> ip2
I1216 13:23:41.542570 34688 net.cpp:150] Setting up ip2
I1216 13:23:41.542598 34688 net.cpp:157] Top shape: 64 2 (128)
I1216 13:23:41.542613 34688 net.cpp:165] Memory required for data: 4306688
I1216 13:23:41.542631 34688 layer_factory.hpp:77] Creating layer ip2_ip2_0_split
I1216 13:23:41.542654 34688 net.cpp:100] Creating Layer ip2_ip2_0_split
I1216 13:23:41.542670 34688 net.cpp:434] ip2_ip2_0_split <- ip2
I1216 13:23:41.542687 34688 net.cpp:408] ip2_ip2_0_split -> ip2_ip2_0_split_0
I1216 13:23:41.542743 34688 net.cpp:408] ip2_ip2_0_split -> ip2_ip2_0_split_1
I1216 13:23:41.542812 34688 net.cpp:150] Setting up ip2_ip2_0_split
I1216 13:23:41.542837 34688 net.cpp:157] Top shape: 64 2 (128)
I1216 13:23:41.542860 34688 net.cpp:157] Top shape: 64 2 (128)
I1216 13:23:41.542875 34688 net.cpp:165] Memory required for data: 4307712
I1216 13:23:41.542891 34688 layer_factory.hpp:77] Creating layer accuracy
I1216 13:23:41.542914 34688 net.cpp:100] Creating Layer accuracy
I1216 13:23:41.542929 34688 net.cpp:434] accuracy <- ip2_ip2_0_split_0
I1216 13:23:41.542946 34688 net.cpp:434] accuracy <- label_data_1_split_0
I1216 13:23:41.542968 34688 net.cpp:408] accuracy -> accuracy
…
