…
I1214 11:35:04.405055 12277 net.cpp:322] The NetState phase (0) differed from the phase (1) specified by a rule in layer data
I1214 11:35:04.405099 12277 net.cpp:322] The NetState phase (0) differed from the phase (1) specified by a rule in layer accuracy
I1214 11:35:04.405272 12277 net.cpp:58] Initializing net from parameters: 
name: "face_alignment_full_net"
state {
  phase: TRAIN
  level: 0
  stage: ""
}
layer {
  name: "data"
  type: "HDF5Data"
  top: "data"
  top: "label"
  include {
    phase: TRAIN
  }
  hdf5_data_param {
    source: "../train_hdf5.txt"
    batch_size: 64
  }
}
layer {
  name: "conv1"
  type: "Convolution"
  bottom: "data"
  top: "conv1"
  param {
    lr_mult: 1
  }
  param {
    lr_mult: 2
  }
  convolution_param {
    num_output: 20
    pad: 0
    kernel_size: 4
    stride: 1
    weight_filler {
      type: "xavier"
    }
    bias_filler {
      type: "constant"
      value: 0.1
    }
  }
}
layer {
  name: "pool1"
  type: "Pooling"
  bottom: "conv1"
  top: "pool1"
  pooling_param {
    pool: MAX
    kernel_size: 2
    stride: 1
  }
}
layer {
  name: "relu1"
  type: "ReLU"
  bottom: "pool1"
  top: "pool1"
}
layer {
  name: "conv2"
  type: "Convolution"
  bottom: "pool1"
  top: "conv2"
  param {
    lr_mult: 1
  }
  param {
    lr_mult: 2
  }
  convolution_param {
    num_output: 40
    kernel_size: 3
    stride: 1
    weight_filler {
      type: "xavier"
    }
    bias_filler {
      type: "constant"
      value: 0.1
    }
  }
}
layer {
  name: "pool2"
  type: "Pooling"
  bottom: "conv2"
  top: "pool2"
  pooling_param {
    pool: MAX
    kernel_size: 2
    stride: 1
  }
}
layer {
  name: "relu2"
  type: "ReLU"
  bottom: "pool2"
  top: "pool2"
}
layer {
  name: "ip1"
  type: "InnerProduct"
  bottom: "pool2"
  top: "ip1"
  param {
    lr_mult: 1
  }
  param {
    lr_mult: 2
  }
  inner_product_param {
    num_output: 60
    weight_filler {
      type: "gaussian"
      std: 0.01
    }
    bias_filler {
      type: "constant"
    }
  }
}
layer {
  name: "ip2"
  type: "InnerProduct"
  bottom: "ip1"
  top: "ip2"
  param {
    lr_mult: 1
  }
  param {
    lr_mult: 2
  }
  inner_product_param {
    num_output: 2
    weight_filler {
      type: "gaussian"
      std: 0.01
    }
    bias_filler {
      type: "constant"
    }
  }
}
layer {
  name: "loss"
  type: "EuclideanLoss"
  bottom: "ip2"
  bottom: "label"
  top: "loss"
}
I1214 11:35:04.406133 12277 layer_factory.hpp:77] Creating layer data
I1214 11:35:04.406182 12277 net.cpp:100] Creating Layer data
I1214 11:35:04.406213 12277 net.cpp:408] data -> data
I1214 11:35:04.406260 12277 net.cpp:408] data -> label
I1214 11:35:04.406296 12277 hdf5_data_layer.cpp:79] Loading list of HDF5 filenames from: ../train_hdf5.txt
I1214 11:35:04.406363 12277 hdf5_data_layer.cpp:93] Number of HDF5 files: 2
I1214 11:35:04.407941 12277 hdf5.cpp:32] Datatype class: H5T_FLOAT
I1214 11:35:04.480748 12277 net.cpp:150] Setting up data
I1214 11:35:04.480850 12277 net.cpp:157] Top shape: 64 3 15 15 (43200)
I1214 11:35:04.480876 12277 net.cpp:157] Top shape: 64 2 1 1 (128)
I1214 11:35:04.480893 12277 net.cpp:165] Memory required for data: 173312
I1214 11:35:04.480921 12277 layer_factory.hpp:77] Creating layer conv1
I1214 11:35:04.480990 12277 net.cpp:100] Creating Layer conv1
I1214 11:35:04.481017 12277 net.cpp:434] conv1 <- data
I1214 11:35:04.481052 12277 net.cpp:408] conv1 -> conv1
I1214 11:35:04.898033 12277 net.cpp:150] Setting up conv1
I1214 11:35:04.898129 12277 net.cpp:157] Top shape: 64 20 12 12 (184320)
I1214 11:35:04.898159 12277 net.cpp:165] Memory required for data: 910592
I1214 11:35:04.898248 12277 layer_factory.hpp:77] Creating layer pool1
I1214 11:35:04.898293 12277 net.cpp:100] Creating Layer pool1
I1214 11:35:04.898332 12277 net.cpp:434] pool1 <- conv1
I1214 11:35:04.898356 12277 net.cpp:408] pool1 -> pool1
I1214 11:35:04.898470 12277 net.cpp:150] Setting up pool1
I1214 11:35:04.898501 12277 net.cpp:157] Top shape: 64 20 11 11 (154880)
I1214 11:35:04.898517 12277 net.cpp:165] Memory required for data: 1530112
I1214 11:35:04.898535 12277 layer_factory.hpp:77] Creating layer relu1
I1214 11:35:04.898555 12277 net.cpp:100] Creating Layer relu1
I1214 11:35:04.898572 12277 net.cpp:434] relu1 <- pool1
I1214 11:35:04.898591 12277 net.cpp:395] relu1 -> pool1 (in-place)
I1214 11:35:04.898869 12277 net.cpp:150] Setting up relu1
I1214 11:35:04.898902 12277 net.cpp:157] Top shape: 64 20 11 11 (154880)
I1214 11:35:04.898919 12277 net.cpp:165] Memory required for data: 2149632
I1214 11:35:04.898937 12277 layer_factory.hpp:77] Creating layer conv2
I1214 11:35:04.898983 12277 net.cpp:100] Creating Layer conv2
I1214 11:35:04.899006 12277 net.cpp:434] conv2 <- pool1
I1214 11:35:04.899027 12277 net.cpp:408] conv2 -> conv2
I1214 11:35:04.901217 12277 net.cpp:150] Setting up conv2
I1214 11:35:04.901260 12277 net.cpp:157] Top shape: 64 40 9 9 (207360)
I1214 11:35:04.901278 12277 net.cpp:165] Memory required for data: 2979072
I1214 11:35:04.901312 12277 layer_factory.hpp:77] Creating layer pool2
I1214 11:35:04.901335 12277 net.cpp:100] Creating Layer pool2
I1214 11:35:04.901351 12277 net.cpp:434] pool2 <- conv2
I1214 11:35:04.901372 12277 net.cpp:408] pool2 -> pool2
I1214 11:35:04.901448 12277 net.cpp:150] Setting up pool2
I1214 11:35:04.901479 12277 net.cpp:157] Top shape: 64 40 8 8 (163840)
I1214 11:35:04.901494 12277 net.cpp:165] Memory required for data: 3634432
I1214 11:35:04.901510 12277 layer_factory.hpp:77] Creating layer relu2
I1214 11:35:04.901543 12277 net.cpp:100] Creating Layer relu2
I1214 11:35:04.901562 12277 net.cpp:434] relu2 <- pool2
I1214 11:35:04.901582 12277 net.cpp:395] relu2 -> pool2 (in-place)
I1214 11:35:04.901855 12277 net.cpp:150] Setting up relu2
I1214 11:35:04.901887 12277 net.cpp:157] Top shape: 64 40 8 8 (163840)
I1214 11:35:04.901903 12277 net.cpp:165] Memory required for data: 4289792
I1214 11:35:04.901919 12277 layer_factory.hpp:77] Creating layer ip1
I1214 11:35:04.901953 12277 net.cpp:100] Creating Layer ip1
I1214 11:35:04.901971 12277 net.cpp:434] ip1 <- pool2
I1214 11:35:04.901993 12277 net.cpp:408] ip1 -> ip1
I1214 11:35:04.911314 12277 net.cpp:150] Setting up ip1
I1214 11:35:04.911353 12277 net.cpp:157] Top shape: 64 60 (3840)
I1214 11:35:04.911370 12277 net.cpp:165] Memory required for data: 4305152
I1214 11:35:04.911396 12277 layer_factory.hpp:77] Creating layer ip2
I1214 11:35:04.911422 12277 net.cpp:100] Creating Layer ip2
I1214 11:35:04.911438 12277 net.cpp:434] ip2 <- ip1
I1214 11:35:04.911459 12277 net.cpp:408] ip2 -> ip2
I1214 11:35:04.911634 12277 net.cpp:150] Setting up ip2
I1214 11:35:04.911664 12277 net.cpp:157] Top shape: 64 2 (128)
I1214 11:35:04.911682 12277 net.cpp:165] Memory required for data: 4305664
I1214 11:35:04.911705 12277 layer_factory.hpp:77] Creating layer loss
I1214 11:35:04.911726 12277 net.cpp:100] Creating Layer loss
I1214 11:35:04.911743 12277 net.cpp:434] loss <- ip2
I1214 11:35:04.911761 12277 net.cpp:434] loss <- label
I1214 11:35:04.911782 12277 net.cpp:408] loss -> loss
I1214 11:35:04.911870 12277 net.cpp:150] Setting up loss
…
I1214 11:35:04.912206 12277 net.cpp:283] Network initialization done.
I1214 11:35:04.912688 12277 solver.cpp:193] Creating test net (#0) specified by net file: ./train_val.prototxt
I1214 11:35:04.912750 12277 net.cpp:322] The NetState phase (1) differed from the phase (0) specified by a rule in layer data
I1214 11:35:04.912932 12277 net.cpp:58] Initializing net from parameters: 
name: "face_alignment_full_net"
state {
  phase: TEST
}
layer {
  name: "data"
  type: "HDF5Data"
  top: "data"
  top: "label"
  include {
    phase: TEST
  }
  hdf5_data_param {
    source: "../validation_hdf5.txt"
    batch_size: 64
  }
}
layer {
  name: "conv1"
  type: "Convolution"
  bottom: "data"
  top: "conv1"
  param {
    lr_mult: 1
  }
  param {
    lr_mult: 2
  }
  convolution_param {
    num_output: 20
    pad: 0
    kernel_size: 4
    stride: 1
    weight_filler {
      type: "xavier"
    }
    bias_filler {
      type: "constant"
      value: 0.1
    }
  }
}
layer {
  name: "pool1"
  type: "Pooling"
  bottom: "conv1"
  top: "pool1"
  pooling_param {
    pool: MAX
    kernel_size: 2
    stride: 1
  }
}
layer {
  name: "relu1"
  type: "ReLU"
  bottom: "pool1"
  top: "pool1"
}
layer {
  name: "conv2"
  type: "Convolution"
  bottom: "pool1"
  top: "conv2"
  param {
    lr_mult: 1
  }
  param {
    lr_mult: 2
  }
  convolution_param {
    num_output: 40
    kernel_size: 3
    stride: 1
    weight_filler {
      type: "xavier"
    }
    bias_filler {
      type: "constant"
      value: 0.1
    }
  }
}
layer {
  name: "pool2"
  type: "Pooling"
  bottom: "conv2"
  top: "pool2"
  pooling_param {
    pool: MAX
    kernel_size: 2
    stride: 1
  }
}
layer {
  name: "relu2"
  type: "ReLU"
  bottom: "pool2"
  top: "pool2"
}
layer {
  name: "ip1"
  type: "InnerProduct"
  bottom: "pool2"
  top: "ip1"
  param {
    lr_mult: 1
  }
  param {
    lr_mult: 2
  }
  inner_product_param {
    num_output: 60
    weight_filler {
      type: "gaussian"
      std: 0.01
    }
    bias_filler {
      type: "constant"
    }
  }
}
layer {
  name: "ip2"
  type: "InnerProduct"
  bottom: "ip1"
  top: "ip2"
  param {
    lr_mult: 1
  }
  param {
    lr_mult: 2
  }
  inner_product_param {
    num_output: 2
    weight_filler {
      type: "gaussian"
      std: 0.01
    }
    bias_filler {
      type: "constant"
    }
  }
}
layer {
  name: "accuracy"
  type: "EuclideanLoss"
  bottom: "ip2"
  bottom: "label"
  top: "accuracy"
  include {
    phase: TEST
  }
}
layer {
  name: "loss"
  type: "EuclideanLoss"
  bottom: "ip2"
  bottom: "label"
  top: "loss"
}
I1214 11:35:04.913803 12277 layer_factory.hpp:77] Creating layer data
I1214 11:35:04.913833 12277 net.cpp:100] Creating Layer data
I1214 11:35:04.913852 12277 net.cpp:408] data -> data
I1214 11:35:04.913877 12277 net.cpp:408] data -> label
I1214 11:35:04.913898 12277 hdf5_data_layer.cpp:79] Loading list of HDF5 filenames from: ../validation_hdf5.txt
I1214 11:35:04.913954 12277 hdf5_data_layer.cpp:93] Number of HDF5 files: 1
I1214 11:35:04.939054 12277 net.cpp:150] Setting up data
I1214 11:35:04.939152 12277 net.cpp:157] Top shape: 64 3 15 15 (43200)
I1214 11:35:04.939184 12277 net.cpp:157] Top shape: 64 2 1 1 (128)
I1214 11:35:04.939203 12277 net.cpp:165] Memory required for data: 173312
I1214 11:35:04.939226 12277 layer_factory.hpp:77] Creating layer label_data_1_split
I1214 11:35:04.939263 12277 net.cpp:100] Creating Layer label_data_1_split
I1214 11:35:04.939296 12277 net.cpp:434] label_data_1_split <- label
I1214 11:35:04.939323 12277 net.cpp:408] label_data_1_split -> label_data_1_split_0
I1214 11:35:04.939363 12277 net.cpp:408] label_data_1_split -> label_data_1_split_1
I1214 11:35:04.939436 12277 net.cpp:150] Setting up label_data_1_split
I1214 11:35:04.939508 12277 net.cpp:157] Top shape: 64 2 1 1 (128)
I1214 11:35:04.939530 12277 net.cpp:157] Top shape: 64 2 1 1 (128)
I1214 11:35:04.939546 12277 net.cpp:165] Memory required for data: 174336
I1214 11:35:04.939563 12277 layer_factory.hpp:77] Creating layer conv1
I1214 11:35:04.939604 12277 net.cpp:100] Creating Layer conv1
I1214 11:35:04.939625 12277 net.cpp:434] conv1 <- data
I1214 11:35:04.939649 12277 net.cpp:408] conv1 -> conv1
I1214 11:35:04.942131 12277 net.cpp:150] Setting up conv1
I1214 11:35:04.942174 12277 net.cpp:157] Top shape: 64 20 12 12 (184320)
I1214 11:35:04.942193 12277 net.cpp:165] Memory required for data: 911616
I1214 11:35:04.942231 12277 layer_factory.hpp:77] Creating layer pool1
I1214 11:35:04.942257 12277 net.cpp:100] Creating Layer pool1
I1214 11:35:04.942275 12277 net.cpp:434] pool1 <- conv1
I1214 11:35:04.942294 12277 net.cpp:408] pool1 -> pool1
I1214 11:35:04.942373 12277 net.cpp:150] Setting up pool1
I1214 11:35:04.942401 12277 net.cpp:157] Top shape: 64 20 11 11 (154880)
I1214 11:35:04.942417 12277 net.cpp:165] Memory required for data: 1531136
I1214 11:35:04.942433 12277 layer_factory.hpp:77] Creating layer relu1
I1214 11:35:04.942456 12277 net.cpp:100] Creating Layer relu1
I1214 11:35:04.942472 12277 net.cpp:434] relu1 <- pool1
I1214 11:35:04.942492 12277 net.cpp:395] relu1 -> pool1 (in-place)
I1214 11:35:04.943707 12277 net.cpp:150] Setting up relu1
I1214 11:35:04.943747 12277 net.cpp:157] Top shape: 64 20 11 11 (154880)
I1214 11:35:04.943763 12277 net.cpp:165] Memory required for data: 2150656
I1214 11:35:04.943783 12277 layer_factory.hpp:77] Creating layer conv2
I1214 11:35:04.943809 12277 net.cpp:100] Creating Layer conv2
I1214 11:35:04.943826 12277 net.cpp:434] conv2 <- pool1
I1214 11:35:04.943848 12277 net.cpp:408] conv2 -> conv2
I1214 11:35:04.946077 12277 net.cpp:150] Setting up conv2
I1214 11:35:04.946118 12277 net.cpp:157] Top shape: 64 40 9 9 (207360)
I1214 11:35:04.946135 12277 net.cpp:165] Memory required for data: 2980096
I1214 11:35:04.946166 12277 layer_factory.hpp:77] Creating layer pool2
I1214 11:35:04.946189 12277 net.cpp:100] Creating Layer pool2
I1214 11:35:04.946208 12277 net.cpp:434] pool2 <- conv2
I1214 11:35:04.946228 12277 net.cpp:408] pool2 -> pool2
I1214 11:35:04.946305 12277 net.cpp:150] Setting up pool2
I1214 11:35:04.946334 12277 net.cpp:157] Top shape: 64 40 8 8 (163840)
I1214 11:35:04.946349 12277 net.cpp:165] Memory required for data: 3635456
I1214 11:35:04.946367 12277 layer_factory.hpp:77] Creating layer relu2
I1214 11:35:04.946386 12277 net.cpp:100] Creating Layer relu2
I1214 11:35:04.946403 12277 net.cpp:434] relu2 <- pool2
I1214 11:35:04.946422 12277 net.cpp:395] relu2 -> pool2 (in-place)
I1214 11:35:04.946697 12277 net.cpp:150] Setting up relu2
I1214 11:35:04.946730 12277 net.cpp:157] Top shape: 64 40 8 8 (163840)
I1214 11:35:04.946748 12277 net.cpp:165] Memory required for data: 4290816
I1214 11:35:04.946764 12277 layer_factory.hpp:77] Creating layer ip1
I1214 11:35:04.946792 12277 net.cpp:100] Creating Layer ip1
I1214 11:35:04.946810 12277 net.cpp:434] ip1 <- pool2
I1214 11:35:04.946831 12277 net.cpp:408] ip1 -> ip1
I1214 11:35:04.954700 12277 net.cpp:150] Setting up ip1
I1214 11:35:04.954753 12277 net.cpp:157] Top shape: 64 60 (3840)
I1214 11:35:04.954769 12277 net.cpp:165] Memory required for data: 4306176
I1214 11:35:04.954808 12277 layer_factory.hpp:77] Creating layer ip2
I1214 11:35:04.954833 12277 net.cpp:100] Creating Layer ip2
I1214 11:35:04.954850 12277 net.cpp:434] ip2 <- ip1
I1214 11:35:04.954875 12277 net.cpp:408] ip2 -> ip2
I1214 11:35:04.955054 12277 net.cpp:150] Setting up ip2
I1214 11:35:04.955080 12277 net.cpp:157] Top shape: 64 2 (128)
I1214 11:35:04.955094 12277 net.cpp:165] Memory required for data: 4306688
I1214 11:35:04.955113 12277 layer_factory.hpp:77] Creating layer ip2_ip2_0_split
I1214 11:35:04.955134 12277 net.cpp:100] Creating Layer ip2_ip2_0_split
I1214 11:35:04.955157 12277 net.cpp:434] ip2_ip2_0_split <- ip2
I1214 11:35:04.955175 12277 net.cpp:408] ip2_ip2_0_split -> ip2_ip2_0_split_0
I1214 11:35:04.955238 12277 net.cpp:408] ip2_ip2_0_split -> ip2_ip2_0_split_1
I1214 11:35:04.955308 12277 net.cpp:150] Setting up ip2_ip2_0_split
I1214 11:35:04.955333 12277 net.cpp:157] Top shape: 64 2 (128)
I1214 11:35:04.955349 12277 net.cpp:157] Top shape: 64 2 (128)
I1214 11:35:04.955363 12277 net.cpp:165] Memory required for data: 4307712
I1214 11:35:04.955379 12277 layer_factory.hpp:77] Creating layer accuracy
I1214 11:35:04.955400 12277 net.cpp:100] Creating Layer accuracy
I1214 11:35:04.955415 12277 net.cpp:434] accuracy <- ip2_ip2_0_split_0
I1214 11:35:04.955432 12277 net.cpp:434] accuracy <- label_data_1_split_0
I1214 11:35:04.955451 12277 net.cpp:408] accuracy -> accuracy
…
